pygame 2.3.0 (SDL 2.24.2, Python 3.11.1)
Hello from the pygame community. https://www.pygame.org/contribute.html
HexConvolutionalModel(
  (next_move_finder): Sequential(
    (0): Conv2d(3, 8, kernel_size=(3, 3), stride=(1, 1))
    (1): BatchNorm2d(8, eps=1e-05, momentum=0.1, affine=True, track_running_stats=True)
    (2): ReLU()
    (3): Dropout(p=0.05, inplace=False)
    (4): Conv2d(8, 16, kernel_size=(3, 3), stride=(1, 1))
    (5): BatchNorm2d(16, eps=1e-05, momentum=0.1, affine=True, track_running_stats=True)
    (6): ReLU()
    (7): Dropout(p=0.05, inplace=False)
    (8): ConvTranspose2d(16, 8, kernel_size=(3, 3), stride=(1, 1))
    (9): BatchNorm2d(8, eps=1e-05, momentum=0.1, affine=True, track_running_stats=True)
    (10): ReLU()
    (11): Dropout(p=0.05, inplace=False)
    (12): ConvTranspose2d(8, 1, kernel_size=(3, 3), stride=(1, 1))
    (13): ReLU()
  )
)
HexConvolutionalModel(
  (next_move_finder): Sequential(
    (0): Conv2d(3, 8, kernel_size=(3, 3), stride=(1, 1))
    (1): BatchNorm2d(8, eps=1e-05, momentum=0.1, affine=True, track_running_stats=True)
    (2): ReLU()
    (3): Dropout(p=0.05, inplace=False)
    (4): Conv2d(8, 16, kernel_size=(3, 3), stride=(1, 1))
    (5): BatchNorm2d(16, eps=1e-05, momentum=0.1, affine=True, track_running_stats=True)
    (6): ReLU()
    (7): Dropout(p=0.05, inplace=False)
    (8): ConvTranspose2d(16, 8, kernel_size=(3, 3), stride=(1, 1))
    (9): BatchNorm2d(8, eps=1e-05, momentum=0.1, affine=True, track_running_stats=True)
    (10): ReLU()
    (11): Dropout(p=0.05, inplace=False)
    (12): ConvTranspose2d(8, 1, kernel_size=(3, 3), stride=(1, 1))
    (13): ReLU()
  )
)
X_shape: torch.Size([2164, 3, 7, 7])
Y_shape: torch.Size([2164, 7, 7])
I have [0, 0] data!
X_shape: torch.Size([2040, 3, 7, 7])
Y_shape: torch.Size([2040, 7, 7])
I have [2164, 0] data!
Start training for 10 games with 0.7 prob_of_random_move.
Training:   0%|          | 0/10 [00:00<?, ? Game/s][W NNPACK.cpp:64] Could not initialize NNPACK! Reason: Unsupported hardware.
…
